model_w_atten.pt (torch_old, 539141 bytes, 34 tensors)

weight f4 [12, 6, 3, 3]
00000000: e811 10bb 762f f0bb 4c8c cf3b da1a 853b
00000010: 7584 3a3b 7917 a5bb a3a2 07bc aeb1 0d3b
00000020: 23aa b7ba 7dda 05bb 9661 bd3b c9c4 7abb
00000030: a839 ad3a 8614 2c3a a56c 13bb e5f0 be3b
00000040: ad49 d6bb 2031 9e3b 987f b738 0976 c1ba
00000050: eb98 ce3a f1b5 34bb 728d 873b a6c1 583b
00000060: 9572 ad3a 094f ec3a 3488 04bc 1bf0 c8bb
00000070: c4e6 4b3c 49f9 3dbb dd26 6c3b 0aa4 93bb
00000080: 8ce7 6a3a ade2 953b 82a1 8bbb 5d40 3f3a
00000090: 036b eb3b 5ff1 46bc ee5a cc3b 41bd 14bc
000000a0: f211 723b 8e40 99ba 5536 27ba 3070 523b
000000b0: 1fa5 34bb 972a 7db9 6506 663b 5bef 2b3b
000000c0: f25a 283c 5253 afbb 6e23 d7bb d031 d3bb
000000d0: 9433 a23b 25a4 9b3a ddf2 e039 0dfb a3bb
000000e0: e693 ea3a 40a0 2abb 107c 173c 8fa9 0ebc
000000f0: 425d 23bb a6ba 2bba c868 6fbb 87a0 023b
00000100: e34c 5abb ba18 93ba 26e5 e83a c858 36bc
00000110: 2818 2a3c 15d5 163b 4fef 2a3b cfa0 383a
00000120: 26ce 703a 8c83 0d3c ac54 d0bb ba09 88ba
00000130: 8453 9c3b c254 26bb 7ac2 4aba 5d33 12bc
00000140: 0d62 a5b9 2a43 9f3b 48a2 e2bb 2257 093a
00000150: 8a9c 6bbb c996 133b f2d0 9c3b 70db 283b
00000160: b379 97bb 1527 9ab9 7291 3fba f4c6 043c
00000170: 3f2f 513b 1093 3e3b bc93 80bb c51e 3abc
00000180: aa29 c1bb 2989 0c3c 5ea8 1cbb d382 95ba
00000190: c80e 51b9 979e 61ba 4e19 813b c96d c7ba
000001a0: aa2c da3b dc8f 6d3b 9d1d 003b 2960 d1ba
000001b0: 6837 c93b 896f 85bb 7aca 073b 941c 72bb
000001c0: cf6a 093b a93f 8739 ca29 2bb9 1c26 66bb
000001d0: 3408 303a f56c c7bb 8e77 9f3b ca46 043b
000001e0: 4ce8 173b bf67 fa3b f4a3 a0bb ed14 c63b
000001f0: ac9d 5ebc 88b5 feba ddda e13a b2cb 3e3b
00000200: 80b5 beba dca4 49b8 cbaf 60bc 95e5 fcb8
00000210: 913a f5bb 7b28 2b3c d4f6 afba d7df 24bb
00000220: eac1 473b 9449 b7b8 629d 9cbb bf50 8a3b
00000230: 24ea 713a b4a6 333b 1961 9dbb 016f 80ba
00000240: e3a5 c9b9 e71a 03bb fa83 683b d60b 2cbb
00000250: 1994 253a 6a06 cabb 3333 36bc 7243 b53b
00000260: c99f 1f3b ebc5 a2bb 6b91 a93b 88f4 14bb
00000270: b53f 3f3b 3f1a 1abc ca9f c8ba 386e 22ba
00000280: 21ce b43a 7529 c0bb b7de 90bb 72e8 a0bb
00000290: 7a7b f23b 53c5 5c3b ca51 68ba b8d8 00bc
000002a0: a5c7 56ba aa1f d339 e375 843a 2015 2d3b
000002b0: 9136 ca3b 7f20 0abc cc76 e138 2999 91bb
000002c0: 8e6c 1c3c 9ebe d7ba c705 b93b 75c1 ebba
000002d0: b63b 3eb9 6c31 633a f6d0 0a3b a6cd 11bb
000002e0: fefa 46bb 6c82 b6bb c3b4 83bb e143 023a
000002f0: c9af f5b9 112f 8fbb ff42 a23b 09fe 43bb
00000300: ce26 193c 413a 0dbc 4ccc dd3b 451d dbbb
00000310: 7f40 993b d445 31bb c79b 1e3c 2854 2dbb
00000320: 99bc b23a 81ce 48bc cdc6 ce3b 9472 78bb
00000330: f4d3 3e3c 7084 2ebc 4734 423b 20b7 feba
00000340: 2f79 1ebb e27a 25bb c0d3 013c 9b1c 693b
00000350: 1057 04ba 4169 bfbb d6b6 5c3b e034 5cb9
00000360: 41fd fd3b b91b b3bb c9c5 573b ce67 52ba
00000370: 523a 16b7 fcc0 ec3a 6a76 9cbb c95f 923b
00000380: ad6a 54bb ad4d f4bb 930a fe3a 999f e3b8
00000390: d61b b6bb c2d7 b23b 0694 03bc 9a2d 353c
000003a0: bb38 5abc 9403 703b f36a c0ba ad71 91b9
000003b0: 684e 81bb 32ac 37ba 24c5 b6bb 64bb 9eba
000003c0: 04ea 90bb 8dfe d63a 9452 5dbb 0a5b f8bb
000003d0: ecbf d33b 469a 01bb 8dbe 113b e829 02bb
000003e0: c8e2 40ba 7e1f dd3a 734a 9abb b138 833a
000003f0: ee8a a53b dc28 6ebb c75e 5739 4259 61ba
-0.002198333 -0.0073298765 0.0063338634 0.004062039 0.0028460298 -0.0050381985 -0.008278522 0.0021620798
-0.0014012497 -0.0020424419 0.0057794554 -0.0038264266 0.0013216035 0.00065643375 -0.0022495177 0.0058270567
-0.0065395446 0.0048276335 8.749886e-05 -0.0014759909 0.0015762126 -0.0027574266 0.0041367346 0.0033074408
0.0013233001 0.0018028925 -0.008089114 -0.0061321384 0.0124451555 -0.0028987697 0.0036033907 -0.004505639
0.0008960895 0.004574141 -0.0042611966 0.00072956627 0.0071843877 -0.012142508 0.0062364256 -0.009078325
0.0036936966 -0.0011692212 -0.00063786405 0.0032110326 -0.002756424 -0.00024143826 0.0035099026 0.0026235196
0.010275589 -0.0053505087 -0.006565503 -0.006445147 0.0049499962 0.001187448 0.00042905557 -0.005004293
0.001789686 -0.0026035458 0.009245887 -0.008707418 -0.0024927412 -0.0006550945 -0.003653096 0.0019932108
-0.0033309988 -0.0011222579 0.0017768487 -0.011129566 0.010381736 0.002301519 0.002608258 0.00070430053
0.0009185992 0.00863732 -0.00635775 -0.0010378875 0.004770698 -0.002538011 -0.0007734668 -0.008923379
-0.00031544306 0.0048603015 -0.006916318 0.0005239119 -0.003595146 0.0022520295 0.0047856504 0.002576556
-0.004622662 -0.00029402287 -0.0007307745 0.008104075 0.003191903 0.0029079355 -0.0039238613 -0.011359875
-0.0058948593 0.008577623 -0.0023904066 -0.0011406787 -0.000199373 -0.00086067006 0.003939784 -0.0015215214
0.0066581564 0.0036249077 0.00195489 -0.0015974093 0.006140638 -0.004072134 0.002072005 -0.0036943303
0.0020968204 0.00025796637 -0.00016323398 -0.003511793 0.00067150895 -0.0060859867 0.004866547 0.0020183795
0.0023179231 0.007641762 -0.0049023572 0.006044975 -0.013587397 -0.0019432763 0.0017231364 0.002911311
-0.0014549941 -4.807567e-05 -0.013713787 -0.000120590594 -0.0074837883 0.010446663 -0.0013425001 -0.0025157833
0.0030480572 -8.739825e-05 -0.0047795037 0.0042210515 0.000922831 0.0027412595 -0.0048028347 -0.0009798707
-0.00038461303 -0.0020005049 0.0035479055 -0.0026252172 0.0006316319 -0.0061653154 -0.011120605 0.0055317217
0.0024356714 -0.0049674413 0.005174806 -0.002272876 0.002918226 -0.009405672 -0.001530641 -0.00061962334
0.0013794341 -0.005864317 -0.004421081 -0.004910522 0.0073999735 0.003368695 -0.0008862285 -0.00786417
-0.00081932015 0.00040268648 0.0010105934 0.0026410297 0.0061710556 -0.008430599 0.00010750964 -0.004443307
0.009547366 -0.0016460007 0.0056464407 -0.0017986732 -0.00018142056 0.0008666727 0.002118168 -0.002224782
-0.0030362005 -0.0055697467 -0.004019351 0.0004969221 -0.00046861012 -0.0043696244 0.004951834 -0.0029906055
0.009347631 -0.008619846 0.006768739 -0.006686839 0.004676878 -0.0027049677 0.009680695 -0.0026447866
0.0013636529 -0.012256266 0.00631032 -0.003791009 0.011647213 -0.010651693 0.002963321 -0.0019433238
-0.0024181118 -0.0025250246 0.00792402 0.0035570029 -0.0005048374 -0.0058414047 0.0033678315 -0.00021000532
0.0077511375 -0.0054659513 0.0032924286 -0.00080263324 -8.9542755e-06 0.0018062885 -0.0047748582 0.004466985
-0.0032412217 -0.0074555487 0.0019381813 -0.00010853931 -0.0055575175 0.0054578492 -0.008030897 0.011058236
-0.01331919 0.0036623226 -0.0014680311 -0.0002774125 -0.0039461143 -0.0007006555 -0.0055777 -0.001211029
-0.004422428 0.0016402766 -0.0033771144 -0.007579212 0.006462088 -0.0019775792 0.0022238821 -0.0019861404
-0.0007358012 0.0016870347 -0.004708582 0.0010011402 0.005051962 -0.0036340272 0.00020539305 -0.00085963693

_grid f4 [12, 2048, 2]
00000000: 0000 0000 0000 0000 0000 0000 0000 803f
00000010: 0000 0000 0000 0040 0000 0000 0000 4040
00000020: 0000 0000 0000 8040 0000 0000 0000 a040
00000030: 0000 0000 0000 c040 0000 0000 0000 e040
00000040: 0000 0000 0000 0041 0000 0000 0000 1041
00000050: 0000 0000 0000 2041 0000 0000 0000 3041
00000060: 0000 0000 0000 4041 0000 0000 0000 5041
00000070: 0000 0000 0000 6041 0000 0000 0000 7041
00000080: 0000 0000 0000 8041 0000 0000 0000 8841
00000090: 0000 0000 0000 9041 0000 0000 0000 9841
000000a0: 0000 0000 0000 a041 0000 0000 0000 a841
000000b0: 0000 0000 0000 b041 0000 0000 0000 b841
000000c0: 0000 0000 0000 c041 0000 0000 0000 c841
000000d0: 0000 0000 0000 d041 0000 0000 0000 d841
000000e0: 0000 0000 0000 e041 0000 0000 0000 e841
000000f0: 0000 0000 0000 f041 0000 0000 0000 f841
00000100: 0000 0000 0000 0042 0000 0000 0000 0442
00000110: 0000 0000 0000 0842 0000 0000 0000 0c42
00000120: 0000 0000 0000 1042 0000 0000 0000 1442
00000130: 0000 0000 0000 1842 0000 0000 0000 1c42
00000140: 0000 0000 0000 2042 0000 0000 0000 2442
00000150: 0000 0000 0000 2842 0000 0000 0000 2c42
00000160: 0000 0000 0000 3042 0000 0000 0000 3442
00000170: 0000 0000 0000 3842 0000 0000 0000 3c42
00000180: 0000 0000 0000 4042 0000 0000 0000 4442
00000190: 0000 0000 0000 4842 0000 0000 0000 4c42
000001a0: 0000 0000 0000 5042 0000 0000 0000 5442
000001b0: 0000 0000 0000 5842 0000 0000 0000 5c42
000001c0: 0000 0000 0000 6042 0000 0000 0000 6442
000001d0: 0000 0000 0000 6842 0000 0000 0000 6c42
000001e0: 0000 0000 0000 7042 0000 0000 0000 7442
000001f0: 0000 0000 0000 7842 0000 0000 0000 7c42
00000200: 0000 803f 0000 0000 0000 803f 0000 803f
00000210: 0000 803f 0000 0040 0000 803f 0000 4040
00000220: 0000 803f 0000 8040 0000 803f 0000 a040
00000230: 0000 803f 0000 c040 0000 803f 0000 e040
00000240: 0000 803f 0000 0041 0000 803f 0000 1041
00000250: 0000 803f 0000 2041 0000 803f 0000 3041
00000260: 0000 803f 0000 4041 0000 803f 0000 5041
00000270: 0000 803f 0000 6041 0000 803f 0000 7041
00000280: 0000 803f 0000 8041 0000 803f 0000 8841
00000290: 0000 803f 0000 9041 0000 803f 0000 9841
000002a0: 0000 803f 0000 a041 0000 803f 0000 a841
000002b0: 0000 803f 0000 b041 0000 803f 0000 b841
000002c0: 0000 803f 0000 c041 0000 803f 0000 c841
000002d0: 0000 803f 0000 d041 0000 803f 0000 d841
000002e0: 0000 803f 0000 e041 0000 803f 0000 e841
000002f0: 0000 803f 0000 f041 0000 803f 0000 f841
00000300: 0000 803f 0000 0042 0000 803f 0000 0442
00000310: 0000 803f 0000 0842 0000 803f 0000 0c42
00000320: 0000 803f 0000 1042 0000 803f 0000 1442
00000330: 0000 803f 0000 1842 0000 803f 0000 1c42
00000340: 0000 803f 0000 2042 0000 803f 0000 2442
00000350: 0000 803f 0000 2842 0000 803f 0000 2c42
00000360: 0000 803f 0000 3042 0000 803f 0000 3442
00000370: 0000 803f 0000 3842 0000 803f 0000 3c42
00000380: 0000 803f 0000 4042 0000 803f 0000 4442
00000390: 0000 803f 0000 4842 0000 803f 0000 4c42
000003a0: 0000 803f 0000 5042 0000 803f 0000 5442
000003b0: 0000 803f 0000 5842 0000 803f 0000 5c42
000003c0: 0000 803f 0000 6042 0000 803f 0000 6442
000003d0: 0000 803f 0000 6842 0000 803f 0000 6c42
000003e0: 0000 803f 0000 7042 0000 803f 0000 7442
000003f0: 0000 803f 0000 7842 0000 803f 0000 7c42
0.0 0.0 0.0 1.0 0.0 2.0 0.0 3.0
0.0 4.0 0.0 5.0 0.0 6.0 0.0 7.0
0.0 8.0 0.0 9.0 0.0 10.0 0.0 11.0
0.0 12.0 0.0 13.0 0.0 14.0 0.0 15.0
0.0 16.0 0.0 17.0 0.0 18.0 0.0 19.0
0.0 20.0 0.0 21.0 0.0 22.0 0.0 23.0
0.0 24.0 0.0 25.0 0.0 26.0 0.0 27.0
0.0 28.0 0.0 29.0 0.0 30.0 0.0 31.0
0.0 32.0 0.0 33.0 0.0 34.0 0.0 35.0
0.0 36.0 0.0 37.0 0.0 38.0 0.0 39.0
0.0 40.0 0.0 41.0 0.0 42.0 0.0 43.0
0.0 44.0 0.0 45.0 0.0 46.0 0.0 47.0
0.0 48.0 0.0 49.0 0.0 50.0 0.0 51.0
0.0 52.0 0.0 53.0 0.0 54.0 0.0 55.0
0.0 56.0 0.0 57.0 0.0 58.0 0.0 59.0
0.0 60.0 0.0 61.0 0.0 62.0 0.0 63.0
1.0 0.0 1.0 1.0 1.0 2.0 1.0 3.0
1.0 4.0 1.0 5.0 1.0 6.0 1.0 7.0
1.0 8.0 1.0 9.0 1.0 10.0 1.0 11.0
1.0 12.0 1.0 13.0 1.0 14.0 1.0 15.0
1.0 16.0 1.0 17.0 1.0 18.0 1.0 19.0
1.0 20.0 1.0 21.0 1.0 22.0 1.0 23.0
1.0 24.0 1.0 25.0 1.0 26.0 1.0 27.0
1.0 28.0 1.0 29.0 1.0 30.0 1.0 31.0
1.0 32.0 1.0 33.0 1.0 34.0 1.0 35.0
1.0 36.0 1.0 37.0 1.0 38.0 1.0 39.0
1.0 40.0 1.0 41.0 1.0 42.0 1.0 43.0
1.0 44.0 1.0 45.0 1.0 46.0 1.0 47.0
1.0 48.0 1.0 49.0 1.0 50.0 1.0 51.0
1.0 52.0 1.0 53.0 1.0 54.0 1.0 55.0
1.0 56.0 1.0 57.0 1.0 58.0 1.0 59.0
1.0 60.0 1.0 61.0 1.0 62.0 1.0 63.0

weight f4 [32, 6, 3, 3]
00000000: 37ac 8e3d f43d 41bd 35db 803d e757 f5bd
00000010: 36a8 173e 7ee8 2dbe 51bb 9d3d 8202 5cbd
00000020: c064 2dbc 69c6 a4bd d08a 343d ef26 39b8
00000030: ca07 51bd bd2e 60be 9b63 fe3d 4aeb f73c
00000040: 5d0b 9c3d 3ac2 f43d 2f17 7eba b9b3 d93d
00000050: 9609 c13d d5d4 663e 6ac3 21be a141 753d
00000060: 51db 77bd 1683 3dbe 2c9a b8bd 6c64 1dbe
00000070: 10e5 1f3d 9844 dfbc 34fb f9bc 1128 8a3e
00000080: 330d 3dbc 23e7 46bd 3e6d 53bd da8e 283d
00000090: 4b72 ae3d 7ea1 e83d dc1e 14be 568e 51be
000000a0: 0a49 9e3e 6903 42be 3a57 3ebd 6eec c83d
000000b0: e18e f9bc a618 363c acc5 4ebe 2689 943d
000000c0: 4408 183e a7ea 0dbe d71a 9fbd 13c3 cf3d
000000d0: b5c9 d33a 5eba b03d fed5 843d 0ab8 b73c
000000e0: 6c4a 2d3e 7536 2cbe f225 6fbd a81d 943e
000000f0: 8410 623d 3887 93be 1191 37be 24c9 6b3d
00000100: 0796 c03d c48e 10be 540f 88be 0ff3 f63d
00000110: d67b 1abe 9b4b 1a3e e3d2 ca3d 1218 843d
00000120: 3e87 76bd bac9 6ebd 5eac 24bd 5ace fabd
00000130: 09d9 ae3e da87 813d ab24 d03d b4b3 9cbc
00000140: 7a39 11be 9b1d 10bc 51ed bc3c 62df 1c3e
00000150: 22e7 d13d 580b 9cbe ec76 a23e 95cc 443c
00000160: b910 02be b080 99bd 15da e0bb 58a9 b03d
00000170: 3f46 85be 2e97 0a3d 697b e6ba ad28 d7bd
00000180: 3650 123e a75f 8f3d fd63 093c 1fdd 1f3d
00000190: 37a7 2cbe 3e27 843d 2332 4e3c ee82 4fbd
000001a0: 6411 c73c e785 97bc 2fcd 7e3c 2f6b 01bc
000001b0: 888b 73ba 05b2 203d 72d7 4e3b b3d0 873d
000001c0: fa0a fc3d 236f 933d 0579 1cbc 3573 0fbe
000001d0: 7526 083d ea08 a03d ffe9 9fbc ff0f 3a3d
000001e0: 85b8 d5bd 2f79 fdbe 28b2 bdbc 2a36 26bc
000001f0: 8726 eb3c ce02 b73d f679 f0bc 7b45 bbbd
00000200: b387 1dbe 0d4c 153e 61a0 133e 18a4 8fbd
00000210: e863 a0bd c7f1 a83e 86ad 733b c533 7dbd
00000220: 1ee2 a13c 3e08 2a3d 8f13 b8bb 22e6 7cbe
00000230: e03d e63c 319a 763d 9ea7 27bd 93c7 bd3c
00000240: 77db 4f3e 3fa4 3f3e 0139 373e 4c31 ccbd
00000250: 0e7c 9dbe 3a3f b63d a45f 6bbd 31b2 0d3e
00000260: 9726 973d 217c efbd 9bb3 f6bd 6d72 15bc
00000270: 2084 303c 8f33 8bbd baab 4b3d 1ba3 e73b
00000280: 7e43 103e 583e d8bd 2c52 9f3d b886 423e
00000290: 9b8c 753d 0251 bc3c fcfa 88bc 9844 dc3d
000002a0: 76a3 ccba a477 023e 3ef3 1e3d 2263 1e3c
000002b0: 5ef0 723c 39e5 85bd bf4b 06bb e3b9 0ebd
000002c0: 24f8 8d3d e671 533d 7138 9f3d ef50 25bd
000002d0: 3b6c 19be 1b0d 2abe a8cd c4bc b124 31be
000002e0: 411d a4bd b965 13be bbec 2dbe dd67 7ebd
000002f0: 243f 953b 111f 173e 6466 2f3e c8f0 8e3d
00000300: f5d0 143d 999f 893d 754d 443e 2143 ce3c
00000310: f296 23bb d1a1 f13d 9fe6 e53d b6e0 9dbd
00000320: ba63 babb 8a96 6a3c fc64 ca3c a99a 2ebd
00000330: 45c3 963d 01d2 a6bb dc9d 093e 63f1 b3bd
00000340: dc6f 88bd eeb5 21be c1d1 03bc 8a23 bd3c
00000350: 349e 1bbe 3dc6 0abd bdfb f8bd e333 1cbe
00000360: 7f5b 613d 47b8 98bd ccea 7c3b eb9a 05be
00000370: 357b 6cbe 89e3 cabd f1ba 1cbe 962a 87bd
00000380: b7fb 34be 3ee0 11be 2729 6d3c 66f1 ccbd
00000390: ddd5 62be e420 15be a7c0 c6bd d2c8 bb3c
000003a0: e288 ce3a 8948 19be 434f 6b3e a41b 5d3e
000003b0: e27f ee3d af61 ad3d 616f 813e 0cf5 553e
000003c0: ff83 433e 12e4 b33d 7497 853e a70c 373e
000003d0: 4cae 533c aad7 9c3d 87e5 8b3b c841 e83d
000003e0: b884 573e b54b 383c bc1c c73d 3a2c 273e
000003f0: 5584 273d 550b b63d b2d1 213e 157c e53d
0.06966441 -0.047178224 0.062918104 -0.11979657 0.14810261 -0.1698322 0.077017434 -0.05371333
-0.010583103 -0.08045656 0.044077694 -4.4143697e-05 -0.05103282 -0.21892829 0.12421342 0.030263562
0.07619355 0.11951108 -0.00096927857 0.106299825 0.094256565 0.22542126 -0.15797201 0.05987704
-0.06051189 -0.18507037 -0.09013781 -0.15370339 0.03903681 -0.027254388 -0.03051529 0.26983693
-0.0115387915 -0.048560273 -0.051617853 0.04115186 0.085178934 0.11358927 -0.14464897 -0.20464453
0.309151 -0.18946613 -0.046469904 0.098107204 -0.030463638 0.011114275 -0.20192593 0.072527215
0.14846903 -0.13859044 -0.07768791 0.10144629 0.0016158136 0.08629297 0.06486128 0.022426624
0.16922921 -0.16817649 -0.058385797 0.28928876 0.05519153 -0.288141 -0.17926432 0.05756487
0.094036154 -0.14116961 -0.26574194 0.120580785 -0.15086302 0.15067904 0.09903505 0.064499035
-0.06018757 -0.05829785 -0.040203445 -0.1224639 0.3414996 0.0632474 0.10163244 -0.019128658
-0.14182082 -0.008796121 0.02306238 0.15319589 0.10249163 -0.30477405 0.31731355 0.012011667
-0.12701692 -0.07495248 -0.006861935 0.0862605 -0.26030156 0.033835582 -0.0017584387 -0.10505805
0.1428841 0.07000666 0.0083856555 0.039029237 -0.16860662 0.06452797 0.012585196 -0.050661974
0.024300285 -0.018496467 0.015551849 -0.00789909 -0.0009290506 0.039232273 0.003156152 0.06631603
0.12306781 0.07198932 -0.009550338 -0.14008792 0.0332398 0.078142 -0.019520758 0.04542541
-0.10435585 -0.49506518 -0.02315624 -0.01014475 0.028704895 0.08936082 -0.02935503 -0.09144112
-0.15383796 0.14579792 0.14416648 -0.0701372 -0.078315556 0.3299696 0.0037182285 -0.06181695
0.019761141 0.041511767 -0.005617566 -0.24697164 0.028105676 0.060205642 -0.040931337 0.023166453
0.20298563 0.18714999 0.17892839 -0.0997034 -0.3075871 0.08898778 -0.057464257 0.13837506
0.07380407 -0.116935976 -0.12045976 -0.0091215195 0.010773689 -0.067969434 0.049724318 0.0070690042
0.14088246 -0.10558766 0.07779345 0.18996704 0.059948545 0.022987846 -0.016721241 0.10755271
-0.001561268 0.12740952 0.038806193 0.00966719 0.014827816 -0.065378614 -0.0020491926 -0.034845244
0.06932095 0.051622294 0.07774437 -0.040360387 -0.14982693 -0.16606562 -0.024023846 -0.17299153
-0.08013392 -0.14394273 -0.16984837 -0.06211077 0.004554646 0.14757945 0.17128903 0.06979519
0.03633209 0.06719894 0.19170173 0.025178494 -0.0024961797 0.11798442 0.11225628 -0.07708876
-0.005688158 0.014318118 0.024706356 -0.042627964 0.073614635 -0.0050909524 0.13439125 -0.08786275
-0.066619605 -0.15792057 -0.008045615 0.023088235 -0.15197068 -0.03388046 -0.1215739 -0.15254168
0.055018898 -0.07457023 0.0038592098 -0.13047378 -0.23093875 -0.0990668 -0.15305687 -0.065999195
-0.17674147 -0.14245698 0.0144751435 -0.100069806 -0.22151895 -0.14563328 -0.09704714 0.022922907
0.0015757347 -0.14969076 0.22979455 0.21592575 0.116454855 0.08465897 0.25280288 0.20894259
0.19093321 0.08783735 0.26092112 0.1787592 0.012919974 0.07658322 0.004269305 0.11340672
0.21046722 0.011248519 0.097222775 0.16325465 0.040897686 0.0888888 0.15802649 0.112053074

bias f4 [32]
00000000: d09b a83c bcae 2ebc f888 893b d145 663d
00000010: 3bdc 73bc 10aa 563a ef49 f93b 1b37 2ebc
00000020: eeb8 b03c c235 243d f17a f439 4b05 8e3c
00000030: 06e5 03bc 4d46 b6bb 500a 893b 9610 1e3d
00000040: 0437 9fbc 8afd 02be 36ad 733b 12da 863c
00000050: 9769 a9bb 503e ed3a 6423 9bbb 6337 c83b
00000060: e5b5 233d 9f46 b5bb e650 92ba 67d3 87bc
00000070: 2fba d33c c08d 25bc 9581 b1bc 4b59 d23b
0.02058211 -0.010661777 0.004197236 0.056218926 -0.01488405 0.00081887934 0.0076076905 -0.010633255
0.021572556 0.04009033 0.00046630905 0.017336508 -0.008050209 -0.0055625797 0.0041821375 0.038590036
-0.019435413 -0.1279203 0.00371821 0.016461406 -0.005170058 0.0018100236 -0.0047344435 0.0061101182
0.03996839 -0.0055321003 -0.0011163026 -0.016580297 0.025845615 -0.010104597 -0.021668235 0.006419336

weight f4 [32, 32, 3, 3]
00000000: ae2d d9bd 8438 94bd 92f4 8ebc 17e2 e73c
00000010: 78e5 9f3d 4786 88bc 3298 1f3d 573d a73d
00000020: 2919 bcbd 4063 4abe 18ff 0fbd 7cbb 873c
00000030: 58bc b83e 4444 99be e083 e43d 1096 c2be
00000040: 5ca4 053e 71c0 9bbd d082 973e 68dc 6abe
00000050: 0136 d43d 4f98 86bd f733 ef3d 27ce 14be
00000060: 2b34 013e 8594 b13d 267b 6a3e 9e1c f33d
00000070: fd92 293e d915 1b3d 8be7 863e 160a 953e
00000080: fe79 793e c125 9b3d 2218 423e 939a 683d
00000090: 4a9a e23d 183a 9c3c be89 18be 0cc6 8b3e
000000a0: 0ca7 89be 3410 9bbe 0db3 28be 9ebc 2dbd
000000b0: 9214 11be 8a88 3abd 9612 78bc eb49 8fbd
000000c0: e755 233e ef8b 783d ecc3 1cbe adce 6dbd
000000d0: fae6 8d3b 23bc ab3d 94cb a33e 800e 9a3b
000000e0: 0e99 abbc a3d9 0bbe aeaf 54bd 4c73 a23c
000000f0: 955e 513e 2e5d 1c3d 1d01 983d 73a9 223e
00000100: 4587 e93d 3c9b 91bd af81 e5bd b49e 3bbd
00000110: 2e94 3fbe d4e5 ab3c 6095 0c3c cf61 c0bd
00000120: 0fca 06be 3cb2 b2bc 878e 143e 5774 d4bd
00000130: 4ff5 cc3d 3bca 0b3e e38f 8abd 0ca9 60be
00000140: 9337 a0bd 9c22 973c 8a7c 0e3d 83b7 cd3c
00000150: 2756 883d c54f 343e 5d45 a9bc d31d 5dbc
00000160: c76f 98bc 4fda 89bd 8867 c33b 388b b4bd
00000170: b4b3 86bc 79f2 cabd 1e20 5fbc 65ba d8bd
00000180: ff67 063e 9449 1bbd ca74 df3d 240d 423d
00000190: 85b3 91bd 78f9 863e e9cd 3cbd 0d61 9dbd
000001a0: 1b87 9cbd d5a3 213c 3ff3 00bd 2cc9 843e
000001b0: e1da 6cbe 5f20 9fbe b44e 31bc 1a10 c7bc
000001c0: 629b dfbc 9864 3f3e dbcb 083d 3399 793e
000001d0: b13b af3d a4fc 553e 83b1 82be e1f3 753d
000001e0: aa77 9bbc d96b 4c3e 9033 57be dd6e 853e
000001f0: ff9c bbbd 8925 12bd 656c 99bd 8ef0 11be
00000200: 34e3 26be f317 22be 2b55 9e3c 490d 183d
00000210: 52ab 153e f335 4fbc c77b a43d 5ea8 c9bd
00000220: fc55 afbd 6340 33bd 4a03 883d 0546 2bbe
00000230: 7fbd b13c 6e59 6cbe 22c8 79be 2a67 21be
00000240: 3976 52be 0320 75be f0e1 1cbe 4e03 b13d
00000250: 37b1 123e 613f 433d e3c2 e9bd 2104 85bd
00000260: ac82 0ebe bf08 363d 2b6b 053e d481 003d
00000270: 04e1 e53d f2f2 5d3d 0fce 8e3d e427 f63d
00000280: 1f2b a73d b2ed 903c ccdb f7bd d995 a53d
00000290: de81 1bbe d08b 2a3d 89d5 44be d92a 93bd
000002a0: f96c 643e 8e3c 273d dfe9 083e dae5 3b3d
000002b0: 139a 873d fb29 963d 716b a53d 4727 2a3d
000002c0: b623 cdbb 85de 023d ba36 523d 8a8b dabd
000002d0: a40c 213e e11e a5bd c6b6 2c3d 92ec d4bd
000002e0: 0c8b c93b 4bf8 3cbc 2c44 45bc 3755 853d
000002f0: 2d11 113d 1898 1cbd b889 acbb 971d 4fbd
00000300: 6a8a 3c3e 9050 d6be 0b16 9fbe 0036 163d
00000310: 3772 593e c8b3 e4bd 70b7 2abc eb25 d6bd
00000320: e849 f3bd e7ca 81be 0934 29be cefe e7bd
00000330: a512 c43a f29e 0a3d 1798 743e 6fbd 8ebd
00000340: dc64 5a3d 13ab 7c3d bcdd bb3c 93a4 74bc
00000350: b090 903d f5f1 d5bd b630 c33d 27df 2f3d
00000360: 82ac 4d3c 455b 053d b884 4a3e 4c5e ba3d
00000370: 4f9a 7d3c eecb 4bbe 6949 123d fad5 9cbb
00000380: 6aff 173e e15f 4d3e 5a53 23bd 9f5f 863d
00000390: 9c82 93be 2b04 b3bc ea8a e1bd 077c 9d3e
000003a0: dd31 3bbe 0029 bf3c 62e6 15be b1f6 a83d
000003b0: 009d 8dbd 3474 fbbc 8f9c 55be 017c 613e
000003c0: 4f23 6d3a 4d6d 0d3e 3afb 78bd ec10 123d
000003d0: e921 053e 0a4b bd3d 2b59 373e 2b92 e33d
000003e0: e757 7cbd d42a 3bbe fd33 9a3e 6945 87be
000003f0: 229e ff3c 6be1 f83c dee1 4d3d 1665 a73e
-0.10604416 -0.07237342 -0.017450605 0.02830605 0.078074396 -0.01666559 0.038963504 0.081659965
-0.091844864 -0.19764423 -0.035155386 0.016568892 0.36081195 -0.29934895 0.11157966 -0.38005114
0.1305098 -0.07605065 0.2959199 -0.22935641 0.10361863 -0.06572019 0.116798334 -0.14531766
0.12617557 0.08670906 0.2289854 0.11870693 0.16559978 0.037862632 0.26348528 0.29109257
0.24362943 0.0757556 0.18954518 0.05678804 0.110645846 0.01907067 -0.14896294 0.27299535
-0.2688526 -0.302858 -0.16474552 -0.042416207 -0.14168003 -0.04554037 -0.01514115 -0.069965206
0.15950738 0.060680326 -0.15309113 -0.05805843 0.004330513 0.083854936 0.31991255 0.0047014356
-0.020947006 -0.1365724 -0.051925354 0.019830368 0.20446236 0.0381748 0.07422087 0.15884952
0.11402754 -0.07109687 -0.11206376 -0.045805648 -0.1870887 0.020983614 0.008580536 -0.093936555
-0.13163017 -0.021813504 0.14507495 -0.103737526 0.100077264 0.13651364 -0.067657255 -0.21939486
-0.078231 0.01844912 0.03478674 0.02511192 0.06657057 0.17608555 -0.020662958 -0.01349588
-0.018607987 -0.06731092 0.0059632696 -0.08815616 -0.016443111 -0.09909529 -0.013618497 -0.10582427
0.13125609 -0.037911966 0.109109476 0.047375813 -0.07114319 0.26362205 -0.04609481 -0.076845266
-0.07642957 0.009865721 -0.031481978 0.25934732 -0.2313037 -0.31079385 -0.010821987 -0.02429967
-0.027295772 0.18690717 0.033397537 0.24374847 0.08556307 0.20897156 -0.25526056 0.060047034
-0.018977959 0.19963016 -0.21015763 0.26061144 -0.09160804 -0.035680328 -0.07491378 -0.1425192
-0.16297609 -0.15829448 0.01932772 0.037122045 0.14616135 -0.01264714 0.08031421 -0.098465666
-0.08561322 -0.043762576 0.06641252 -0.16725929 0.021696804 -0.2308099 -0.24392751 -0.1576201
-0.20552911 -0.23937993 -0.15320563 0.086432084 0.14325415 0.047667865 -0.11414125 -0.06494928
-0.13917035 0.044441935 0.13029163 0.031373814 0.11224559 0.05418677 0.06972896 0.12019327
0.081625216 0.017691467 -0.1210247 0.08085222 -0.15186259 0.04163724 -0.19222082 -0.07185907
0.22307195 0.040829234 0.13370465 0.0458735 0.06621184 0.07332226 0.080771334 0.041541364
-0.0062603606 0.031950492 0.051321723 -0.10671146 0.15727478 -0.0806253 0.042166494 -0.10396685
0.006150609 -0.011533807 -0.012040179 0.06510394 0.03541677 -0.038230985 -0.005265441 -0.05056533
0.18412176 -0.4185834 -0.31071505 0.036672592 0.21234976 -0.11167103 -0.0104197115 -0.10456451
-0.11879331 -0.25350115 -0.16523756 -0.11327897 0.001495917 0.03384299 0.23886143 -0.06969725
0.053318843 0.061686587 0.02293288 -0.014931816 0.07058847 -0.1044654 0.09530775 0.042937424
0.012553336 0.032557745 0.1977719 0.09100017 0.015478685 -0.19902012 0.03571454 -0.00478625
0.14843526 0.20056106 -0.039874412 0.06561207 -0.28810585 -0.021852573 -0.11012824 0.30758688
-0.1828074 0.02333498 -0.14638665 0.08250178 -0.06914711 -0.030695058 -0.20860504 0.2201996
0.0009046094 0.13811226 -0.060786463 0.03566067 0.13001217 0.09242828 0.17905109 0.11111864
-0.061607268 -0.18278056 0.3011779 -0.26420143 0.031203333 0.030380925 0.05026423 0.3269431

bias f4 [32]
00000000: 4679 61bd d346 5ebe 7920 acbc 4e1c 9ebe
00000010: 4a82 353d bc4c e5be 3535 2abd 2c69 34be
00000020: 22a9 f5bd 6f2b 883e 0d08 13be ba9d 32be
00000030: 7f1f d7bd ed64 ba3c ea3e d23d 85d0 b23d
00000040: af01 133f 03fd 903e 25d1 fabd b340 f4bd
00000050: 8362 b1bb be23 94be b248 74be dceb 3ebe
00000060: ccb7 4abd 6443 c03d c310 073e b707 663e
00000070: e1e0 77bd eb0c a1be b5c7 d7bc 87f1 a5be
-0.055047296 -0.21706705 -0.021011578 -0.3088097 0.044313706 -0.44785106 -0.04155465 -0.17618245
-0.1199515 0.26595637 -0.1435854 -0.1744298 -0.10504054 0.022753203 0.10265906 0.08731178
0.57424444 0.28318033 -0.122469224 -0.11926403 -0.005413355 -0.2893352 -0.23855856 -0.1864466
-0.04949169 0.09387854 0.13189988 0.2246388 -0.060517196 -0.31455168 -0.026340345 -0.32410833

weight f4 [32, 32, 3, 3]
00000000: eab3 6b3d 989f 3f3e 6238 003e d316 01bd
00000010: d77c 9fbd e988 9ebd 88a1 e7bd c1df 23bc
00000020: a23e 32bd 4539 a53b d450 f03c 01cc de3b
00000030: 7653 acbc 4957 283b 55c7 863c 65ea 393d
00000040: 395b 263c db04 b83c c7d3 e13c 409d 293c
00000050: 1678 633d 0936 81be 96d5 ebbd 3042 8ebe
00000060: 73a2 983b 411b 5e3e 2ee1 a63e a13e 35be
00000070: 33e0 98bc 1a1b 033e 1ab5 5e3e 214f 893e
00000080: 63ac a33d 5fe1 89be 3b60 85be 219c b4bd
00000090: d24e 883e 4b44 ed3e 6712 303f 63a9 b53e
000000a0: 819d 283e 4b12 8abe 263f 7ebe 341c 993d
000000b0: 0b37 303e 9bef 7e3e 8c4c d83d c90c 2d3e
000000c0: 1677 e5bd 1fd8 3bbb a91d 333e 95fa 343e
000000d0: 979a 47bd f3a8 103c 81af 56bf 9466 70bf
000000e0: 0e1a 3fbf 31d2 c93e 8367 013e 037e 183f
000000f0: 476c 5cbe ce02 7ebe 09d0 b9bd 76c7 2a3d
00000100: d814 0b3e 1b89 1c3e 3a85 933d 8604 0f3e
00000110: e2a0 023e eb3b 0d3d 6071 683c 0909 f03d
00000120: 2be7 7f3e fc7c ac3c 6bd9 243e dedc 82be
00000130: 8ad8 233c 0eb0 4dbe 4d21 b0bc 8c55 2abe
00000140: 30cc 07be bf2f f63d baa4 e13d d632 073e
00000150: b59d 8abd 93d6 1c3d 3bef adbe 629f 4ebf
00000160: 7a21 183e f18a f13e 00e6 0ebe dfee edbd
00000170: f5ff e9bd 18b3 a1be 6b9c 94bd 9e4a b3bd
00000180: 6502 073e aa7f bbbd 7a8b 6c3e 3a2d bbbe
00000190: 3515 eb3b fd75 7fbd 067f 2f3f 0e63 77bf
000001a0: 92b9 34bd f3fd 28bf 24f8 843e 7e63 0c3f
000001b0: 396c 08bd eeb9 89be 0e38 c4bd 1469 063d
000001c0: 4ce4 cd3d 679d fcbd fc78 f03c 2b89 0d3d
000001d0: bba4 e43d f4a7 8abe 7b22 48bf d431 30bf
000001e0: fd75 9f3d 1274 783e 680b d73e f69e 953e
000001f0: 8589 803e 29e6 5d3e b17d 743c 293e ddbd
00000200: d78e d93c bc43 c8be fbfd fc3e 93dd 1bbf
00000210: a649 c0bd 4b29 26be 8b41 78bf 2ee9 da3d
00000220: 4caa aebe 9872 6abe af0d 063e 1872 2cbe
00000230: 7b2e 473f de4f f43d 247b 82be a3d5 e43e
00000240: 447f 1dbf cc09 4c3d 0dcb 77be cf12 27bf
00000250: c197 90bf f428 d3be ee74 aebe 0b78 35bf
00000260: a018 3b3e c692 87be 20d4 66be e612 d2be
00000270: 8f9f b23c 6468 f7bd a50e 573f fcbb ac3d
00000280: 029f 1ebf 2cbf c5bf 3143 38be c3c5 15be
00000290: b1f0 adbd a132 ad3e d67a 1d3f e472 013f
000002a0: 05eb 013f 07f3 9e3e 1e85 db3e 9789 933e
000002b0: bfd3 563e 87e8 b33e 2e62 dcbe c1e4 82bf
000002c0: 3674 b4be 7284 76bc 2d39 e3bd 77a0 3fbd
000002d0: abf5 0b3f e33b 1c3f 594e 6e3e 0398 5ebd
000002e0: c433 323e e281 3c3e 909c e2bc af8b a5bd
000002f0: 4e9a eabd b055 3e3e a505 963e f4eb 8e3e
00000300: b74d 273e a933 51bc b15a 393e 4135 0bbe
00000310: d078 72be 76c7 a0be 4336 9abe 779c 87be
00000320: 953f 25be 7fc8 b6bf 91db b6bf 939a e2bf
00000330: a8aa c73c 2970 e33e 7a97 173f 6553 81be
00000340: feb1 96bb ef68 caba b903 8c3e 6bc1 893e
00000350: c06e acbd 1d8d 2fbe 8905 01be 810b aabd
00000360: 95c3 bfbd 8da1 2abe dbfa 0cbe ac7c 523e
00000370: 3a98 983e 22a6 2f3e c037 70bb e3c5 68bd
00000380: 1bd1 ab3d 4f4c e4be 3679 92bc 2222 1abe
00000390: 048d 4bbe 7f33 f43e 55b0 8cbe 13cb a4be
000003a0: dcf3 c4bc 8b17 aebe 14cc 3ebe a93b 1dbe
000003b0: 3baf d3bd 2be8 6f3e 62c6 df3d 0d44 233e
000003c0: 87e3 60be 50fd 913d 52b0 21bd 08d2 1abf
000003d0: 03d3 623e 528e ab3e 1693 b9be 91d3 323f
000003e0: 211c 23bf 53d9 1d3d cc3f cd3e b135 63bd
000003f0: 6c03 65be fc23 0bbf c3ad 13bf bbad 073e
0.057544626 0.18713224 0.12521508 -0.031515907 -0.07787483 -0.07740957 -0.113101065 -0.010002078
-0.043516763 0.0050422275 0.029335417 0.0067992215 -0.021035891 0.0025686792 0.01645247 0.04538955
0.010153585 0.022463253 0.027566804 0.010352433 0.055534445 -0.25236538 -0.11515348 -0.27784872
0.0046580373 0.21690084 0.32593673 -0.17699672 -0.018661594 0.12803307 0.21748772 0.26818183
0.079918645 -0.26929757 -0.2604998 -0.08818842 0.26622635 0.46341166 0.6877808 0.35480794
0.16466333 -0.2696708 -0.24828777 0.074760824 0.17208497 0.2489609 0.10561475 0.16899408
-0.112043545 -0.0028662754 0.17491783 0.17673714 -0.048731413 0.008829343 -0.8386155 -0.9390652
-0.7464913 0.39418176 0.12637143 0.5956728 -0.2152568 -0.24805757 -0.09072883 0.041694127
0.1358217 0.15286677 0.07203145 0.1396657 0.12756684 0.03448097 0.014187187 0.11720473
0.24990527 0.021055691 0.16098563 -0.25559133 0.010000357 -0.20086691 -0.021500254 -0.16634196
-0.13261485 0.120208256 0.11017747 0.13202986 -0.067683615 0.03829057 -0.3397158 -0.8071195
0.1485652 0.47176316 -0.13954926 -0.11617827 -0.11425773 -0.3158195 -0.07256397 -0.087544665
0.13184507 -0.09155209 0.23100081 -0.36557943 0.007174159 -0.06236838 0.685532 -0.9663552
-0.044122286 -0.66012496 0.25970566 0.54839313 -0.033306334 -0.26899666 -0.09581004 0.032815054
0.1005331 -0.123347096 0.029354565 0.03455464 0.11164232 -0.27081263 -0.78177613 -0.6882603
0.07786176 0.24263027 0.4200089 0.2922284 0.2510492 0.2166983 0.014922545 -0.10802872
0.02655737 -0.39114177 0.49412522 -0.6088497 -0.09389047 -0.1622669 -0.9697501 0.10689007
-0.341143 -0.22895277 0.13091157 -0.16840398 0.778053 0.11929296 -0.25484574 0.44694242
-0.61522317 0.04981403 -0.24198551 -0.65263075 -1.1296312 -0.41242182 -0.34073585 -0.70886296
0.18271112 -0.26479167 -0.22541857 -0.41030043 0.0218046 -0.12080458 0.8400672 0.08434293
-0.61961377 -1.5448966 -0.17994381 -0.14626221 -0.08493174 0.3382769 0.6151556 0.50565934
0.50749236 0.3104479 0.42874998 0.2881591 0.20979212 0.35138342 -0.43043655 -1.022606
-0.35244912 -0.015046226 -0.1109489 -0.04678389 0.54671735 0.6102888 0.23272075 -0.05434419
0.1740256 0.18408921 -0.027662545 -0.08083283 -0.114552125 0.18587375 0.2930118 0.27914393
0.1633824 -0.012768664 0.18101002 -0.13594534 -0.23678899 -0.31402177 -0.30119523 -0.2648656
-0.16137536 -1.4279937 -1.4285756 -1.7703422 0.024373367 0.4442151 0.5921551 -0.25258937
-0.004598855 -0.001544265 0.2734659 0.2690538 -0.084195614 -0.17143674 -0.12599768 -0.083029754
-0.09363476 -0.16663189 -0.13767569 0.20555371 0.2980364 0.17153218 -0.0036654323 -0.056829344
0.08389493 -0.4458947 -0.017880064 -0.15052083 -0.19878012 0.47695538 -0.2747828 -0.32186183
-0.024042062 -0.34002337 -0.18632537 -0.1535479 -0.10336157 0.23428409 0.109265104 0.15943928
-0.21961795 0.07128394 -0.039474793 -0.6047673 0.22150807 0.3350702 -0.3624503 0.69854075
-0.63714796 0.038537335 0.40087736 -0.055471126 -0.22364587 -0.5435178 -0.57687014 0.13249867

bias f4 [32]
00000000: 5c2d dabe 087d d93d 95ca d93d 66ec 1abe
00000010: 6fd2 c53e 24c9 de3d a57e 1a3e 7d7b 3cbe
00000020: 76a0 27bf 12a2 27bf 74db 0dba 3a47 edbe
00000030: 45a3 5b3e 09a8 7bbc 3ef1 fcbe 8667 70bf
00000040: e5ce 1e3e 1ca6 963e 7c1b 14bf 74f0 bdbe
00000050: bb58 e03e bd2f d63e 08c7 f23e ac1e 31be
00000060: 9410 91bf c002 e83e 47c1 98bd 1efb ea3e
00000070: c2d6 22be c9d2 ff3e 94a8 c03f 1b16 28be
-0.4261273 0.10619551 0.106343426 -0.15129241 0.3863711 0.10878208 0.15087374 -0.18406482
-0.6547922 -0.65481675 -0.0005411424 -0.46343404 0.21449001 -0.015359887 -0.49402803 -0.93907964
0.15508612 0.29423606 -0.5785444 -0.37097514 0.43817696 0.41833296 0.47417474 -0.17296857
-1.1333184 0.45314598 -0.0745874 0.45894712 -0.15902236 0.49965504 1.5051446 -0.16414683

weight f4 [2, 32, 1, 1]
00000000: 5467 c4bd 5339 9ebd 2836 21bd ae0d 14bc
00000010: f05e 94bd 94eb ed3a b03b d2bc 98b5 b7bb
00000020: 75b0 a13e e5a9 40bd 3ddc 22bd eb95 f13c
00000030: b54c e0bd 930e aa3c a40c 053c 4538 8f3d
00000040: 03ce 10be 1617 223e 4647 27be c51e e6bc
00000050: 3863 913d bef5 0fbe 9349 1c3b 57b6 823d
00000060: ba78 0d3e b64e 8d3d adbc 163e 90ca 1c3b
00000070: cfc0 eb3c eb7b 2d3e 367e ddbd afde 563e
00000080: 7de6 34bc f128 35bb 3045 743c c9f9 aa3c
00000090: dd70 4d3d 6f12 d9bb 4cfc 9e3c 97fe e3bb
000000a0: a42e 72bd 441d 87bd 7038 883b 95ac 44bc
000000b0: 1f5f f83b baa6 d0bb 4027 a0bc 016d 0ebe
000000c0: 4b0b 133d 26e3 bfbd 9508 4cbc 0b85 acbc
000000d0: 00e1 0e3c e4d3 263c c305 f53c 18b3 67bc
000000e0: ac2f 82be 3962 cf3a b500 57bc 0a8b 533c
000000f0: 22dd ecbd c756 f63c a572 fb3e 24d0 31bc
-0.09590021 -0.077257775 -0.039358288 -0.009036465 -0.072446704 0.0018151873 -0.025663227 -0.0056063645
0.3157994 -0.047037024 -0.039760817 0.029490432 -0.10952131 0.020758903 0.00812069 0.069931544
-0.14141087 0.15829119 -0.16335782 -0.028090844 0.070990026 -0.14058587 0.0023847565 0.06382435
0.13815585 0.068997785 0.14720412 0.0023924448 0.028778462 0.16941802 -0.108150885 0.20983385
-0.011041281 -0.0027642811 0.014909074 0.02087106 0.050156463 -0.006624512 0.019407414 -0.0069578397
-0.05912651 -0.06597379 0.0041571185 -0.012004037 0.0075796987 -0.0063675316 -0.019549966 -0.13908769
0.03589944 -0.09369497 -0.012453218 -0.021059534 0.008720636 0.010182355 0.029909974 -0.01414182
-0.25426996 0.0015822119 -0.013122727 0.012911567 -0.11565615 0.030070676 0.49110904 -0.010852847

bias f4 [2]
00000000: d120 bcbe 7500 1d40
-0.36743787 2.453153

weight f4 [32, 2, 1, 1]
00000000: 1b69 23bd 6492 5ebf 87ba a33e e655 73bf
00000010: 8665 e23e 8b1a 1fbf c195 ee3e 3cf7 94be
00000020: da1b 30be ccb7 07bf 8e27 a5be 6ab9 31bf
00000030: da5c bdbd 12b7 3abf 385b fa3e 0ab3 4ebf
00000040: fd0e a43e 1d58 3ebf b75e 0cbf b6e2 10bf
00000050: 9aa3 1d3f c690 7bbf 00ff a4be 2b03 2ebf
00000060: 7829 b3bd 87f4 7fbf 226d 95be b86e 6ebf
00000070: 5c93 3c3f da03 48bf 38e1 9bbe 37f7 12bf
00000080: b4b6 94be dc5b 12bf 36b0 d03e 9df7 9abe
00000090: 47db 3a3e 52c7 5cbf 7b10 003f 6c52 24bf
000000a0: 053c a43e 6766 3bbf e98d c6bd 7d48 7fbf
000000b0: b620 913e c5d4 60bf db34 133f 8a66 0dbf
000000c0: 59c7 0a3f 5928 3cbf c839 3e3e da55 4bbf
000000d0: 48c4 233e a0a8 71bf 14a9 e33e 9aa8 3abf
000000e0: 246a cc3e f39d 09bf 4493 4dbe e828 48bf
000000f0: 39ff 163e 39c5 5ebf d5ac 57bd db7e 58bf
-0.03989516 -0.86942124 0.31978247 -0.95052946 0.4421808 -0.62149876 0.46598628 -0.29094875
-0.17198125 -0.53014827 -0.3225674 -0.69423544 -0.09246226 -0.72935593 0.4889772 -0.8074194
0.32042685 -0.743532 -0.54832023 -0.56595933 0.6157776 -0.9826778 -0.322258 -0.67973584
-0.08748144 -0.99982494 -0.29184824 -0.93137693 0.7366235 -0.78130877 -0.30445266 -0.5740847
-0.2904564 -0.57171416 0.40759438 -0.3026704 0.1824771 -0.8624164 0.5002515 -0.64188266
0.3207704 -0.7320313 -0.09695036 -0.99719983 0.2834527 -0.8782466 0.57502526 -0.5523459
0.5421043 -0.73499066 0.1857673 -0.79427874 0.15992844 -0.94397926 0.44464934 -0.72913516
0.3992473 -0.53756636 -0.20075709 -0.7818742 0.14745797 -0.8701969 -0.05265506 -0.84568566

bias f4 [32]
00000000: 10bc 61bf 1227 44bf bdf1 a9bf 12a8 77bf
00000010: b2ca febf a064 dfbf fe06 6fbf 4d26 52bf
00000020: 808c cdbe 71df 92bf 07bc e9be 849c 9bbf
00000030: 1f9c 02bf a135 33bf 5af0 7dbf 8829 38bf
00000040: 4413 a9bf b1d5 59bc 43da 3ebf 2bab 47bf
00000050: 6f29 8dbf 1915 49bf 9c95 88bf c559 39bf
00000060: d666 9dbf 69b4 9bbf 9585 59bf 5d24 c5bf
00000070: a5b8 c7bf 5854 a5bf 34c4 3fbf 7051 17be
-0.88177586 -0.76622117 -1.3276898 -0.9674083 -1.9905608 -1.7452583 -0.93370044 -0.8208969
-0.40146255 -1.1474439 -0.45651266 -1.215714 -0.5101947 -0.70003706 -0.9919487 -0.7193837
-1.3209004 -0.013295577 -0.7455179 -0.77995557 -1.102827 -0.7854782 -1.0670657 -0.724026
-1.2297008 -1.2164432 -0.84969455 -1.5401722 -1.5603224 -1.2916365 -0.7490876 -0.1477716

weight f4 [32, 32, 3, 3]
00000000: a736 47bf b09f dc3d a242 39be 6539 823d
00000010: 1a79 083f 2005 bd3d b4ca 8dbc 4f11 a8bb
00000020: 3c99 30bd 05a5 a93d bb94 01bf a571 48be
00000030: c150 a03d 12d1 e8be b15e a43e 1ed9 c13e
00000040: 4a81 223f 58be adbd 6b37 823e 5159 243e
00000050: a909 ac3c ab55 71bc 1614 ac3e 1ee0 733c
00000060: 7f70 a83e 53b2 ecbe 9675 0bbe 059f fabc
00000070: bcc8 0b3e bafa cdbc d4fb 96bd 228d 243e
00000080: c2e4 c7bc 4813 73ba ac33 71be 5d19 fe3d
00000090: be67 21be 1e06 303e 53fb 08be e9b1 6dbe
000000a0: e554 dc3e a1ed ac3d 65df c43d ad5c 293f
000000b0: 58e1 dcbe caed 52bd 1d69 8b3e 7ddc 0fbd
000000c0: 7029 e83e 0839 1fbe 5fa3 2cbe c362 33be
000000d0: 1383 be3e 7577 33bd 5b92 c2bd d3dd c9bd
000000e0: f766 ecb8 c794 323d 64b6 313e 9bd0 cf3e
000000f0: 1f77 dc3e 2270 e7be bc4b d43d 7a19 483f
00000100: 7002 0c3f 0c2d c43e 0098 ae3e b9ee 52bf
00000110: 01b8 55bf c044 43bf 16ba 15bf 107d a53e
00000120: f2c5 36bd 1ecf 56be 9b70 3b3e 7ffa 90bf
00000130: a063 3fbf 8fb3 cf3d b66d 18bf 80e2 49be
00000140: bbe6 e73e eddf 1b3e 71b9 cf3e 0f6c 95be
00000150: 7026 8e3d d08e 7b3f 96be e8be ba2e 50bf
00000160: 558c 543f 0812 393e 7aed 1dbf c027 aabd
00000170: 35d4 0b3e 882c 313f 405e 193f 3291 84be
00000180: acef 0e3f c0e3 b8be accf 39be 7e45 96bd
00000190: 5a43 c43c ce2d 0c3e 40e2 a7bf 183f d13d
000001a0: 34fb e9be 8263 813e 05ee e4be 5f66 603f
000001b0: 908f 4f3e 3392 54bd ff04 dc3d 83e5 323f
000001c0: cec1 66be 0b0d cebe 7cfb acbe fc97 b93d
000001d0: 593f 8f3d 7f60 17be f03a b93c 6f1a 1bbd
000001e0: b504 2dbe c04a 3f3f 19c6 323e 7528 3f3f
000001f0: a2fd 1cbf 30e4 a6be 4f8c 4e3f 54e3 1b3e
00000200: 3d6e 94bd a634 033e cee7 64be bf3d e0be
00000210: ae06 0cbd 4b90 a9be 30e2 24be fc54 51be
00000220: 86d3 b1bd 4e3c efbd afbf d8be d156 7bbe
00000230: c609 b33d 9d63 bbbe bbb7 713e cf7b 27be
00000240: e9d0 d0be ef7c db3d 0462 a9be 7af3 39bf
00000250: c593 433e 197e 833d 1379 0f3e 0cf3 05be
00000260: a478 2f3d 9b61 463e 8c82 4ebc 2073 b43d
00000270: 4620 ed3e 32bd 32be 0d1a 80be 55b7 8abd
00000280: 2d9f c03c 02c0 293e 3ac5 55bc 853b e3be
00000290: 06e7 abbd 6285 3ebe 620c 8dbe 99a5 253f
000002a0: 4db3 b83e a7f8 d73e 2e00 08be 827f 8abe
000002b0: 49a5 18bc 3715 eabd 0bb2 0cbe b2f2 10bd
000002c0: 4acd 043f e349 b7be d6c3 053e d121 a53d
000002d0: 30fa 343e d2d4 363e d275 fd3c d8c3 3c3f
000002e0: d016 a53e 68af 83be 85da 343f b082 1bbf
000002f0: e534 6fbe 55af b7bd b465 633e 8800 d5bd
00000300: 076a 2abe 3da4 00be 74fb ac3e 8e10 5abe
00000310: 3d32 3b3f 9639 dd3c 91b7 9d3c 9c25 9b3e
00000320: 32d2 a23d a6fd 203f 91ce 933e b2a6 37be
00000330: c8ea b73e 7719 2bbf 4b03 0ebf 8991 7f3d
00000340: 6548 3b3e 6b02 6c3c 3833 79be 7ded 77be
00000350: c788 b4bd 2f34 c03d a254 023e 3764 03be
00000360: d50a cc3d 1132 89be 2ee4 d23d a37c 853e
00000370: f593 823e cb1d 4dbe acf6 6f3e 5308 203e
00000380: 2f8f 3c3d 3520 b03e bada 9c3e 646d ccbd
00000390: db1a 023e 7892 143e d5c7 1fbf 46e9 28be
000003a0: 2645 b1be b217 123d dcd7 203c 6ce1 80be
000003b0: bb7a cd3d f77e 373e 6050 9ebe 16ac 29bd
000003c0: 14c4 5fbe 7eda 253f 06d0 c3be 8c10 29bf
000003d0: 9a1d cd3e e157 853d d56d 58bf d850 a23f
000003e0: e25a 9c3e 335e 7d3d bb3d a23f f69f 7bbe
000003f0: 3979 5d3e 8a67 d6bd 967a 01be 31ff 6c3f
-0.7781777 0.107726455 -0.18091825 0.063586034 0.53309786 0.09229493 -0.01730857 -0.0051290165
-0.043114886 0.08283428 -0.5061757 -0.19574602 0.078279026 -0.45472008 0.32103494 0.3786096
0.6347853 -0.08483571 0.25432906 0.16049697 0.0210007 -0.0147298975 0.33609074 0.014884977
0.32898328 -0.462298 -0.13619074 -0.030593405 0.13650793 -0.02514397 -0.07372251 0.16069463
-0.024401072 -0.00092725875 -0.23554868 0.124071814 -0.15762231 0.17189834 -0.13377123 -0.23212399
0.4303352 0.084437616 0.096129216 0.66157037 -0.43140674 -0.051496305 0.27228633 -0.035122383
0.45344114 -0.155491 -0.16859196 -0.17518143 0.37209377 -0.043815095 -0.09500571 -0.09856763
-0.000112725356 0.043598916 0.17354733 0.4058884 0.43059632 -0.45202738 0.10366008 0.78163874
0.5469122 0.38315618 0.34100342 -0.8239551 -0.8348389 -0.7627678 -0.5848707 0.32321978
-0.04462237 -0.20977446 0.18304674 -1.1326445 -0.7476139 0.1014167 -0.59542406 -0.19715309
0.4529322 0.1522214 0.40571168 -0.29184005 0.06940925 0.9826479 -0.45457906 -0.813213
0.8302663 0.18073285 -0.61690485 -0.08308363 0.1365517 0.69208574 0.5990944 -0.25892025
0.5583446 -0.3611126 -0.18145627 -0.07337473 0.023957897 0.13689348 -1.3115921 0.10217112
-0.45699465 0.2527123 -0.44712844 0.87656206 0.20269608 -0.05189724 0.107431404 0.6988146
-0.22534868 -0.40244326 -0.33785617 0.09062192 0.069945045 -0.14782904 0.022611111 -0.037867006
-0.16896327 0.74723434 0.17458381 0.7467111 -0.6132451 -0.32595968 0.80682844 0.15223438
-0.07247589 0.12813053 -0.22354051 -0.4379711 -0.034186058 -0.331179 -0.16101909 -0.20442575
-0.08682923 -0.11681424 -0.42333743 -0.24544837 0.087420985 -0.36599436 0.23605244 -0.16355823
-0.40784386 0.107171886 -0.33082592 -0.7263714 0.19099338 0.064205356 0.1401103 -0.13080996
0.04283966 0.19373171 -0.012604367 0.08811021 0.46313685 -0.17454985 -0.25019875 -0.06773249
0.0235134 0.16577151 -0.013047511 -0.44381347 -0.083936736 -0.18605569 -0.2754851 0.64705807
0.36074296 0.42181894 -0.13281319 -0.27050406 -0.009316751 -0.11429828 -0.13739793 -0.035387702
0.51875746 -0.3579856 0.13062987 0.080630906 0.17673564 0.17854622 0.03093997 0.73736334
0.32243967 -0.25719762 0.70645934 -0.6074629 -0.23360021 -0.08968989 0.22206765 -0.10400492
-0.16642009 -0.12562652 0.33785594 -0.21295378 0.7312353 0.027004998 0.01925257 0.3030213
0.07950248 0.62887037 0.28868535 -0.17934683 0.3592131 -0.6683573 -0.55473775 0.062394653
0.18289335 0.014404873 -0.24335945 -0.24211688 -0.08815151 0.09384953 0.12727597 -0.12831198
0.099630035 -0.2679601 0.10297428 0.26071653 0.25503507 -0.20030896 0.23433942 0.15628175
0.046034988 0.34399572 0.30635625 -0.09981802 0.12705557 0.14508998 -0.62414294 -0.16495237
-0.3462307 0.03566713 0.00981709 -0.25171983 0.100331746 0.17919527 -0.30920696 -0.04142388
-0.21852142 0.6478652 -0.38244647 -0.66040874 0.40061647 0.06510902 -0.8454259 1.2680922
0.30538088 0.061857414 1.2675089 -0.24572739 0.21628274 -0.10468967 -0.12644419 0.9257689

bias f4 [32]
00000000: 4b96 cabd 06cb 01be 1379 82be b618 a2be
00000010: 099f 123c bcc9 c7bd ff94 77be 15d9 b13c
00000020: 56ce 3abd 0232 58be e047 a0bd e395 b3bd
00000030: e07c cf3d 1af9 62be 7bf3 89bf 2519 8abe
00000040: f919 e6bd ef60 21be fb01 e7bc e5ac 3abe
00000050: a815 1abe f20c 96be 14fa 64bc eb3d 30be
00000060: b7d1 a2be 1697 e8bd e3b7 44be ebc9 213d
00000070: 7b8d 8bbd 6a1d 50bd 4192 783d eda2 12be
-0.09891947 -0.12675104 -0.25482997 -0.31659478 0.00894905 -0.09755275 -0.24177931 0.021709958
-0.045606934 -0.21112826 -0.07826209 -0.08768823 0.1013124 -0.22165337 -1.0777429 -0.2697231
-0.11235423 -0.15759633 -0.028199187 -0.18230017 -0.15047324 -0.2930675 -0.013975639 -0.1721112
-0.31800625 -0.11356942 -0.19210772 0.039499205 -0.06814095 -0.0508093 0.060686354 -0.14319964

weight f4 [32, 32, 3, 3]
00000000: 55a5 21be f6f2 643e bd40 dd3e d534 03bc
00000010: bef1 6dbd 9653 36bf f5a3 cfbd 8e53 66be
00000020: 34ed 0fbe 8ed3 cfbe d169 1abf 8199 26bf
00000030: 841a bebd dbb0 bdbe 9973 5bbf 9b1b 85be
00000040: 8e13 3dbe 9e50 85be a512 6abd 03d0 c4bd
00000050: e231 b0be 6f9f 9dbd ff90 65bd 85d2 90bd
00000060: b9bb 1fbd 36ef b13d bd37 393e efad d03d
00000070: b0ab b63e b639 9b3e 38ab 8c3e 1b16 d93e
00000080: 6faf 813e 41a3 fe3d 3cde cb3c 9648 0c3e
00000090: 2fcd e53d 003c babc 48a9 1e3d 62b4 1f3e
000000a0: 6fff 0b3e 3b59 ba3d 5872 4d3e bc5f 6bbd
000000b0: 8448 ca3d 144f 753d 8935 0b3e 6a60 a13d
000000c0: ee17 82bd c3bc a5bd 71b8 edbd 094b a33e
000000d0: 6d34 ee3e 7132 993e b254 39bf eb5e 2bbe
000000e0: a371 5f3d 3d6e c53e 77a4 813e 96ba d23c
000000f0: b5b3 fcbe d176 a0be 2034 ccbb 947e d23d
00000100: 42b1 323c f35c 1ebd defe 11be 63e4 37bd
00000110: a0d7 77bd 9f01 973d 073f 0b3e 1ea9 fa3d
00000120: ecc5 4dbd 1239 4e3a afa6 3c3c c06c e53d
00000130: a2ca a43c 02c5 bb3d 9b91 0ebe a0d8 b8bd
00000140: 6cf9 bcbc be83 8f3e a67a 843e 9c70 5fbd
00000150: e824 24be 7632 36be 8f2e 9c3d 2ffa 0e3e
00000160: d467 813e fa60 883e 0751 303c 923c 08bd
00000170: d9d7 893b 4501 02be 2f5a 733d d56f dabd
00000180: 33e4 21bb 6b99 513d 6caa 103e f5dc 51be
00000190: 5e08 dfbd 61e4 47be 7c9e f8bc a568 67bc
000001a0: 83b4 64bd fac4 473e 9143 8e3e 0484 993e
000001b0: e80e 60be 6c3f 20be a667 2dbe 1aa6 02be
000001c0: 861c 72bc 1d31 67be cd09 14bd 65fc c03d
000001d0: 487e 7c39 ebd5 2abe 15cd 4dbe 622b 35be
000001e0: 2d0f 1fbd ee89 6d3d 2ee9 e3bd 57dc ccbe
000001f0: f785 cbbe ad1d fcbc 44d4 f43c cd21 9ebc
00000200: ef31 2c3d ee8b 923d 092e 823c 2275 b3bc
00000210: d36c 173d 7f1d 953c ddf7 af3d 7e57 88be
00000220: e07c 7abb 1412 103e d03c e83e 14f4 883e
00000230: 72c5 193e f4fb 363e c17e 873e ecf1 863e
00000240: d39e a6be ceba aebe 9972 5bbe 250b 74bf
00000250: 3918 82bf 44ce 4bbf 8791 9bbe ec1f c3be
00000260: 40ab f5be f8fc a33b 15c9 873d 030e 88bc
00000270: 38b1 513e be39 973e 29ee b13e 88ad 573d
00000280: 2492 113d 2c37 673c 408f 29be e262 0bbe
00000290: 745f 4d3d b056 88be fcd7 1fbe e985 023e
000002a0: cee7 fabe 4ee1 92be 73cb b93d f220 0abf
000002b0: 1041 06bf bc38 83be 408f 08bf bdf7 00be
000002c0: 0e58 29be 993a 32bd 4137 733d 3c18 c7be
000002d0: 207c a33c 72e9 813d fd52 113e fd69 75be
000002e0: c377 3cbe c9ea 10be d4a7 2f3c c2ce 633e
000002f0: 1fa8 4ebd cc58 1cbf 5982 9cbe d3bf 9d3c
00000300: f695 9bbe 011b 2d3e 6b8d bebd b755 ccbe
00000310: fb7f 0fbf 1722 3cbf 2c9b 77be 048b abbe
00000320: e119 0dbe aebf 8ebe 6eee fdbe 7d5e 8fbc
00000330: 246b 3cbd b378 e2bd 8332 013d e150 ce3e
00000340: c4d8 d43e fb5d ff3e 0ed9 cc3e 4585 823e
00000350: fdc0 153f 30fa 023f d540 0a3f fa68 f73e
00000360: 7688 0a3e 6d4e bb3e 599c da3e ec7a b93e
00000370: 0c51 a13e fbc6 833e 1714 123e b99e 343e
00000380: f216 413e 32ff c23e 5486 7a3e 12d3 743e
00000390: b855 773d 6922 9d3d 93b7 913e 3a75 123f
000003a0: 04ee 0e3f 0b0c b03e fc37 4b3e 8b78 453e
000003b0: eb69 bc3c 4c22 b2be ee1b 9bbe 0417 8ebd
000003c0: a538 b53e d181 883e a620 853e f783 00bf
000003d0: 0838 30bf 063d e2be 2e5b 88bc 26a2 8dbe
000003e0: b691 98be 870d 30be 2ff5 e9be c418 7dbe
000003f0: 2be4 85bd 84b0 fd3c 9262 58bd affc b03e
-0.15785725 0.22358307 0.43213454 -0.008008202 -0.05809187 -0.7122129 -0.10138694 -0.22492811
-0.1405533 -0.4059109 -0.60317713 -0.6507798 -0.09282401 -0.37048993 -0.85723263 -0.25997624
-0.18464491 -0.2603807 -0.057146687 -0.096099876 -0.34413058 -0.07696425 -0.056046482 -0.070714034
-0.038997386 0.08688204 0.18087669 0.10189425 0.35677862 0.30317467 0.2747438 0.42399678
0.25329158 0.12433482 0.024886243 0.13699564 0.11220776 -0.022733688 0.038735658 0.15596154
0.13671659 0.090990506 0.2006315 -0.057464346 0.098771125 0.059889868 0.13594641 0.07879718
-0.063522205 -0.08092644 -0.11607445 0.31893185 0.46524373 0.29921296 -0.7239486 -0.16735427
0.05455173 0.38560668 0.2532079 0.025723737 -0.49355856 -0.3134065 -0.0062317997 0.10278049
0.010906519 -0.038662862 -0.1425738 -0.04489554 -0.06050837 0.07373356 0.13598262 0.12239288
-0.05023758 0.00078667805 0.01151435 0.11202383 0.020116154 0.09168436 -0.13922732 -0.09025693
-0.023068152 0.280302 0.25874823 -0.054550752 -0.16029704 -0.17792687 0.07626068 0.13962625
0.25274527 0.26636487 0.010761506 -0.03326089 0.0042066392 -0.12695797 0.059412178 -0.106658615
-0.0024702668 0.0511717 0.14127511 -0.20494445 -0.10890268 -0.19520713 -0.030349009 -0.01412407
-0.055836212 0.19508734 0.27785924 0.29983532 -0.21880686 -0.15649194 -0.1693407 -0.12758675
-0.014777308 -0.22577329 -0.03614216 0.094231404 0.00024079636 -0.16683166 -0.20097764 -0.1769233
-0.038832832 0.057992868 -0.1112846 -0.40011856 -0.39750645 -0.03077587 0.029886372 -0.019303227
0.042039808 0.07155596 0.015891092 -0.02190644 0.036969017 0.018202541 0.08592198 -0.2662925
-0.0038221404 0.14069396 0.45358896 0.26748717 0.15016726 0.1786955 0.26463893 0.26356447
-0.32543048 -0.34126896 -0.21430434 -0.95329505 -1.0163642 -0.7961161 -0.30384466 -0.38110292
-0.47982216 0.0050045215 0.0663015 -0.016608244 0.2047776 0.2953624 0.34752014 0.052655727
0.03553976 0.014112275 -0.16558552 -0.1361194 0.05013986 -0.26628637 -0.15609735 0.12746395
-0.49004978 -0.2868752 0.09072008 -0.5395652 -0.5244303 -0.25629222 -0.5334358 -0.12594505
-0.16537496 -0.043512914 0.059378866 -0.38885677 0.019956648 0.06343354 0.14191814 -0.23966213
-0.1840506 -0.14152063 0.010721166 0.2224684 -0.0504533 -0.61072993 -0.30568197 0.019256508
-0.3038785 0.16904832 -0.09304317 -0.39909145 -0.5605466 -0.73489517 -0.24180287 -0.33504498
-0.13779403 -0.27880615 -0.4959597 -0.01750111 -0.046000615 -0.11058178 0.031542312 0.4029608
0.4157163 0.4987639 0.4000935 0.25492302 0.584976 0.51163006 0.54005176 0.48322278
0.13528618 0.36583272 0.4269741 0.36226594 0.31507146 0.25737748 0.14265476 0.17638673
0.18856409 0.38085324 0.24465305 0.23908642 0.060384482 0.07672579 0.2846037 0.57210124
0.55831933 0.34384188 0.19845575 0.19284265 0.022999724 -0.3479179 -0.30294746 -0.06937984
0.3539478 0.26661542 0.2600147 -0.5020136 -0.68835497 -0.44187182 -0.01664504 -0.27662772
-0.2979867 -0.1719266 -0.45694873 -0.24716479 -0.0653766 0.030967958 -0.05282838 0.34567782

bias f4 [32]
00000000: 3932 8bbf 2672 4a3c 13ac fbbd f35e d8be
00000010: 314c a3bc e466 d03a 0ef0 77be 6440 4fbe
00000020: 1378 d3be e9a0 00bf b020 d9bd 1731 2cbf
00000030: 0a91 a23e 2856 983e 3082 ad3e 103f 7abf
00000040: 08f9 2e3e b429 393d 0f99 d43d a5fd 73be
00000050: 021c d73e cf93 1cbe 7cb0 05be ec9a b4be
00000060: a0a7 8d3c ae24 c83e 9bbb 07be 1f3d e73e
00000070: 9650 193f 1295 01be bbde 40bd 0ee1 74bb
-1.0874702 0.012356317 -0.1228868 -0.4225994 -0.019933792 0.0015899804 -0.24212667 -0.20239407
-0.41302547 -0.5024553 -0.10601938 -0.67262405 0.3175128 0.29753232 0.33888388 -0.97752476
0.17087185 0.045205787 0.10380756 -0.23827226 0.42013556 -0.1529076 -0.13055605 -0.35274446
0.017291844 0.39090484 -0.1325516 0.4516382 0.5988859 -0.12654522 -0.047087412 -0.0037365588
